…
$ python3 eval.py

출력 결과는 다음과 같음



timestamp:  1702608159.466488

test dataset:  52505

test value counts: 

label

0 1 0 0 0 0 0 0 0 0 0    40191

1 0 0 0 0 0 0 0 0 0 0     2500

0 0 0 0 0 0 1 0 0 0 0     1910

0 0 0 0 0 1 0 0 0 0 0     1845

0 0 0 1 0 0 0 0 0 0 0     1651

0 0 1 0 0 0 0 0 0 0 0     1351

0 0 0 0 1 0 0 0 0 0 0     1287

0 0 0 0 0 0 0 0 1 0 0     1143

0 0 0 0 0 0 0 1 0 0 0      258

0 0 0 0 0 0 0 0 0 0 1      249

0 0 0 0 0 0 0 0 0 1 0      120

Name: count, dtype: int64

ConvolutionalVisionTransformer(

  (stage0): VisionTransformer(

    (patch_embed): ConvEmbed(

      (proj): Conv2d(3, 64, kernel_size=(7, 7), stride=(4, 4), padding=(2, 2))

      (norm): LayerNorm((64,), eps=1e-05, elementwise_affine=True)

    )

    (pos_drop): Dropout(p=0.0, inplace=False)

    (blocks): ModuleList(

      (0): Block(

        (norm1): LayerNorm((64,), eps=1e-05, elementwise_affine=True)

        (attn): Attention(

          (conv_proj_q): Sequential(

            (conv): Conv2d(64, 64, kernel_size=(3, 3), stride=(1, 1), padding=(1, 1), groups=64, bias=False)

            (bn): BatchNorm2d(64, eps=1e-05, momentum=0.1, affine=True, track_running_stats=True)

            (rearrage): Rearrange('b c h w -> b (h w) c')

          )

          (conv_proj_k): Sequential(

            (conv): Conv2d(64, 64, kernel_size=(3, 3), stride=(2, 2), padding=(1, 1), groups=64, bias=False)

            (bn): BatchNorm2d(64, eps=1e-05, momentum=0.1, affine=True, track_running_stats=True)

            (rearrage): Rearrange('b c h w -> b (h w) c')

          )

          (conv_proj_v): Sequential(

            (conv): Conv2d(64, 64, kernel_size=(3, 3), stride=(2, 2), padding=(1, 1), groups=64, bias=False)

            (bn): BatchNorm2d(64, eps=1e-05, momentum=0.1, affine=True, track_running_stats=True)

            (rearrage): Rearrange('b c h w -> b (h w) c')

          )

          (proj_q): Linear(in_features=64, out_features=64, bias=True)

          (proj_k): Linear(in_features=64, out_features=64, bias=True)

          (proj_v): Linear(in_features=64, out_features=64, bias=True)

          (attn_drop): Dropout(p=0.0, inplace=False)

          (proj): Linear(in_features=64, out_features=64, bias=True)

          (proj_drop): Dropout(p=0.0, inplace=False)

        )

        (drop_path): Identity()

        (norm2): LayerNorm((64,), eps=1e-05, elementwise_affine=True)

        (mlp): Mlp(

          (fc1): Linear(in_features=64, out_features=256, bias=True)

          (act): QuickGELU()

          (fc2): Linear(in_features=256, out_features=64, bias=True)

          (drop): Dropout(p=0.0, inplace=False)

        )

      )

    )

  )

  (stage1): VisionTransformer(

    (patch_embed): ConvEmbed(

      (proj): Conv2d(64, 192, kernel_size=(3, 3), stride=(2, 2), padding=(1, 1))

      (norm): LayerNorm((192,), eps=1e-05, elementwise_affine=True)

    )

    (pos_drop): Dropout(p=0.0, inplace=False)

    (blocks): ModuleList(

      (0-3): 4 x Block(

        (norm1): LayerNorm((192,), eps=1e-05, elementwise_affine=True)

        (attn): Attention(

          (conv_proj_q): Sequential(

            (conv): Conv2d(192, 192, kernel_size=(3, 3), stride=(1, 1), padding=(1, 1), groups=192, bias=False)

            (bn): BatchNorm2d(192, eps=1e-05, momentum=0.1, affine=True, track_running_stats=True)

            (rearrage): Rearrange('b c h w -> b (h w) c')

          )

          (conv_proj_k): Sequential(

            (conv): Conv2d(192, 192, kernel_size=(3, 3), stride=(2, 2), padding=(1, 1), groups=192, bias=False)

            (bn): BatchNorm2d(192, eps=1e-05, momentum=0.1, affine=True, track_running_stats=True)

            (rearrage): Rearrange('b c h w -> b (h w) c')

          )

          (conv_proj_v): Sequential(

            (conv): Conv2d(192, 192, kernel_size=(3, 3), stride=(2, 2), padding=(1, 1), groups=192, bias=False)

            (bn): BatchNorm2d(192, eps=1e-05, momentum=0.1, affine=True, track_running_stats=True)

            (rearrage): Rearrange('b c h w -> b (h w) c')

          )

          (proj_q): Linear(in_features=192, out_features=192, bias=True)

          (proj_k): Linear(in_features=192, out_features=192, bias=True)

          (proj_v): Linear(in_features=192, out_features=192, bias=True)

          (attn_drop): Dropout(p=0.0, inplace=False)

          (proj): Linear(in_features=192, out_features=192, bias=True)

          (proj_drop): Dropout(p=0.0, inplace=False)

        )

        (drop_path): Identity()

        (norm2): LayerNorm((192,), eps=1e-05, elementwise_affine=True)

        (mlp): Mlp(

          (fc1): Linear(in_features=192, out_features=768, bias=True)

          (act): QuickGELU()

          (fc2): Linear(in_features=768, out_features=192, bias=True)

          (drop): Dropout(p=0.0, inplace=False)

        )

      )

    )

  )

  (stage2): VisionTransformer(

    (patch_embed): ConvEmbed(

      (proj): Conv2d(192, 384, kernel_size=(3, 3), stride=(2, 2), padding=(1, 1))

      (norm): LayerNorm((384,), eps=1e-05, elementwise_affine=True)

    )

    (pos_drop): Dropout(p=0.0, inplace=False)

    (blocks): ModuleList(

      (0): Block(

        (norm1): LayerNorm((384,), eps=1e-05, elementwise_affine=True)

        (attn): Attention(

          (conv_proj_q): Sequential(

            (conv): Conv2d(384, 384, kernel_size=(3, 3), stride=(1, 1), padding=(1, 1), groups=384, bias=False)

            (bn): BatchNorm2d(384, eps=1e-05, momentum=0.1, affine=True, track_running_stats=True)

            (rearrage): Rearrange('b c h w -> b (h w) c')

          )

          (conv_proj_k): Sequential(

            (conv): Conv2d(384, 384, kernel_size=(3, 3), stride=(2, 2), padding=(1, 1), groups=384, bias=False)

            (bn): BatchNorm2d(384, eps=1e-05, momentum=0.1, affine=True, track_running_stats=True)

            (rearrage): Rearrange('b c h w -> b (h w) c')

          )

          (conv_proj_v): Sequential(

            (conv): Conv2d(384, 384, kernel_size=(3, 3), stride=(2, 2), padding=(1, 1), groups=384, bias=False)

            (bn): BatchNorm2d(384, eps=1e-05, momentum=0.1, affine=True, track_running_stats=True)

            (rearrage): Rearrange('b c h w -> b (h w) c')

          )

          (proj_q): Linear(in_features=384, out_features=384, bias=True)

          (proj_k): Linear(in_features=384, out_features=384, bias=True)

          (proj_v): Linear(in_features=384, out_features=384, bias=True)

          (attn_drop): Dropout(p=0.0, inplace=False)

          (proj): Linear(in_features=384, out_features=384, bias=True)

          (proj_drop): Dropout(p=0.0, inplace=False)

        )

        (drop_path): Identity()

        (norm2): LayerNorm((384,), eps=1e-05, elementwise_affine=True)

        (mlp): Mlp(

          (fc1): Linear(in_features=384, out_features=1536, bias=True)

          (act): QuickGELU()

          (fc2): Linear(in_features=1536, out_features=384, bias=True)

          (drop): Dropout(p=0.0, inplace=False)

        )

      )

      (1): Block(

        (norm1): LayerNorm((384,), eps=1e-05, elementwise_affine=True)

        (attn): Attention(

          (conv_proj_q): Sequential(

            (conv): Conv2d(384, 384, kernel_size=(3, 3), stride=(1, 1), padding=(1, 1), groups=384, bias=False)

            (bn): BatchNorm2d(384, eps=1e-05, momentum=0.1, affine=True, track_running_stats=True)

            (rearrage): Rearrange('b c h w -> b (h w) c')

          )

          (conv_proj_k): Sequential(

            (conv): Conv2d(384, 384, kernel_size=(3, 3), stride=(2, 2), padding=(1, 1), groups=384, bias=False)

            (bn): BatchNorm2d(384, eps=1e-05, momentum=0.1, affine=True, track_running_stats=True)

            (rearrage): Rearrange('b c h w -> b (h w) c')

          )

          (conv_proj_v): Sequential(

            (conv): Conv2d(384, 384, kernel_size=(3, 3), stride=(2, 2), padding=(1, 1), groups=384, bias=False)

            (bn): BatchNorm2d(384, eps=1e-05, momentum=0.1, affine=True, track_running_stats=True)

            (rearrage): Rearrange('b c h w -> b (h w) c')

          )

          (proj_q): Linear(in_features=384, out_features=384, bias=True)

          (proj_k): Linear(in_features=384, out_features=384, bias=True)

          (proj_v): Linear(in_features=384, out_features=384, bias=True)

          (attn_drop): Dropout(p=0.0, inplace=False)

          (proj): Linear(in_features=384, out_features=384, bias=True)

          (proj_drop): Dropout(p=0.0, inplace=False)

        )

        (drop_path): DropPath(drop_prob=0.007)

        (norm2): LayerNorm((384,), eps=1e-05, elementwise_affine=True)

        (mlp): Mlp(

          (fc1): Linear(in_features=384, out_features=1536, bias=True)

          (act): QuickGELU()

          (fc2): Linear(in_features=1536, out_features=384, bias=True)

          (drop): Dropout(p=0.0, inplace=False)

        )

      )

      (2): Block(

        (norm1): LayerNorm((384,), eps=1e-05, elementwise_affine=True)

        (attn): Attention(

          (conv_proj_q): Sequential(

            (conv): Conv2d(384, 384, kernel_size=(3, 3), stride=(1, 1), padding=(1, 1), groups=384, bias=False)

            (bn): BatchNorm2d(384, eps=1e-05, momentum=0.1, affine=True, track_running_stats=True)

            (rearrage): Rearrange('b c h w -> b (h w) c')

          )

          (conv_proj_k): Sequential(

            (conv): Conv2d(384, 384, kernel_size=(3, 3), stride=(2, 2), padding=(1, 1), groups=384, bias=False)

            (bn): BatchNorm2d(384, eps=1e-05, momentum=0.1, affine=True, track_running_stats=True)

            (rearrage): Rearrange('b c h w -> b (h w) c')

          )

          (conv_proj_v): Sequential(

            (conv): Conv2d(384, 384, kernel_size=(3, 3), stride=(2, 2), padding=(1, 1), groups=384, bias=False)

            (bn): BatchNorm2d(384, eps=1e-05, momentum=0.1, affine=True, track_running_stats=True)

            (rearrage): Rearrange('b c h w -> b (h w) c')

          )

          (proj_q): Linear(in_features=384, out_features=384, bias=True)

          (proj_k): Linear(in_features=384, out_features=384, bias=True)

          (proj_v): Linear(in_features=384, out_features=384, bias=True)

          (attn_drop): Dropout(p=0.0, inplace=False)

          (proj): Linear(in_features=384, out_features=384, bias=True)

          (proj_drop): Dropout(p=0.0, inplace=False)

        )

        (drop_path): DropPath(drop_prob=0.013)

        (norm2): LayerNorm((384,), eps=1e-05, elementwise_affine=True)

        (mlp): Mlp(

          (fc1): Linear(in_features=384, out_features=1536, bias=True)

          (act): QuickGELU()

          (fc2): Linear(in_features=1536, out_features=384, bias=True)

          (drop): Dropout(p=0.0, inplace=False)

        )

      )

      (3): Block(

        (norm1): LayerNorm((384,), eps=1e-05, elementwise_affine=True)

        (attn): Attention(

          (conv_proj_q): Sequential(

            (conv): Conv2d(384, 384, kernel_size=(3, 3), stride=(1, 1), padding=(1, 1), groups=384, bias=False)

            (bn): BatchNorm2d(384, eps=1e-05, momentum=0.1, affine=True, track_running_stats=True)

            (rearrage): Rearrange('b c h w -> b (h w) c')

          )

          (conv_proj_k): Sequential(

            (conv): Conv2d(384, 384, kernel_size=(3, 3), stride=(2, 2), padding=(1, 1), groups=384, bias=False)

            (bn): BatchNorm2d(384, eps=1e-05, momentum=0.1, affine=True, track_running_stats=True)

            (rearrage): Rearrange('b c h w -> b (h w) c')

          )

          (conv_proj_v): Sequential(

            (conv): Conv2d(384, 384, kernel_size=(3, 3), stride=(2, 2), padding=(1, 1), groups=384, bias=False)

            (bn): BatchNorm2d(384, eps=1e-05, momentum=0.1, affine=True, track_running_stats=True)

            (rearrage): Rearrange('b c h w -> b (h w) c')

          )

          (proj_q): Linear(in_features=384, out_features=384, bias=True)

          (proj_k): Linear(in_features=384, out_features=384, bias=True)

          (proj_v): Linear(in_features=384, out_features=384, bias=True)

          (attn_drop): Dropout(p=0.0, inplace=False)

          (proj): Linear(in_features=384, out_features=384, bias=True)

          (proj_drop): Dropout(p=0.0, inplace=False)

        )

        (drop_path): DropPath(drop_prob=0.020)

        (norm2): LayerNorm((384,), eps=1e-05, elementwise_affine=True)

        (mlp): Mlp(

          (fc1): Linear(in_features=384, out_features=1536, bias=True)

          (act): QuickGELU()

          (fc2): Linear(in_features=1536, out_features=384, bias=True)

          (drop): Dropout(p=0.0, inplace=False)

        )

      )

      (4): Block(

        (norm1): LayerNorm((384,), eps=1e-05, elementwise_affine=True)

        (attn): Attention(

          (conv_proj_q): Sequential(

            (conv): Conv2d(384, 384, kernel_size=(3, 3), stride=(1, 1), padding=(1, 1), groups=384, bias=False)

            (bn): BatchNorm2d(384, eps=1e-05, momentum=0.1, affine=True, track_running_stats=True)

            (rearrage): Rearrange('b c h w -> b (h w) c')

          )

          (conv_proj_k): Sequential(

            (conv): Conv2d(384, 384, kernel_size=(3, 3), stride=(2, 2), padding=(1, 1), groups=384, bias=False)

            (bn): BatchNorm2d(384, eps=1e-05, momentum=0.1, affine=True, track_running_stats=True)

            (rearrage): Rearrange('b c h w -> b (h w) c')

          )

          (conv_proj_v): Sequential(

            (conv): Conv2d(384, 384, kernel_size=(3, 3), stride=(2, 2), padding=(1, 1), groups=384, bias=False)

            (bn): BatchNorm2d(384, eps=1e-05, momentum=0.1, affine=True, track_running_stats=True)

            (rearrage): Rearrange('b c h w -> b (h w) c')

          )

          (proj_q): Linear(in_features=384, out_features=384, bias=True)

          (proj_k): Linear(in_features=384, out_features=384, bias=True)

          (proj_v): Linear(in_features=384, out_features=384, bias=True)

          (attn_drop): Dropout(p=0.0, inplace=False)

          (proj): Linear(in_features=384, out_features=384, bias=True)

          (proj_drop): Dropout(p=0.0, inplace=False)

        )

        (drop_path): DropPath(drop_prob=0.027)

        (norm2): LayerNorm((384,), eps=1e-05, elementwise_affine=True)

        (mlp): Mlp(

          (fc1): Linear(in_features=384, out_features=1536, bias=True)

          (act): QuickGELU()

          (fc2): Linear(in_features=1536, out_features=384, bias=True)

          (drop): Dropout(p=0.0, inplace=False)

        )

      )

      (5): Block(

        (norm1): LayerNorm((384,), eps=1e-05, elementwise_affine=True)

        (attn): Attention(

          (conv_proj_q): Sequential(

            (conv): Conv2d(384, 384, kernel_size=(3, 3), stride=(1, 1), padding=(1, 1), groups=384, bias=False)

            (bn): BatchNorm2d(384, eps=1e-05, momentum=0.1, affine=True, track_running_stats=True)

            (rearrage): Rearrange('b c h w -> b (h w) c')

          )

          (conv_proj_k): Sequential(

            (conv): Conv2d(384, 384, kernel_size=(3, 3), stride=(2, 2), padding=(1, 1), groups=384, bias=False)

            (bn): BatchNorm2d(384, eps=1e-05, momentum=0.1, affine=True, track_running_stats=True)

            (rearrage): Rearrange('b c h w -> b (h w) c')

          )

          (conv_proj_v): Sequential(

            (conv): Conv2d(384, 384, kernel_size=(3, 3), stride=(2, 2), padding=(1, 1), groups=384, bias=False)

            (bn): BatchNorm2d(384, eps=1e-05, momentum=0.1, affine=True, track_running_stats=True)

            (rearrage): Rearrange('b c h w -> b (h w) c')

          )

          (proj_q): Linear(in_features=384, out_features=384, bias=True)

          (proj_k): Linear(in_features=384, out_features=384, bias=True)

          (proj_v): Linear(in_features=384, out_features=384, bias=True)

          (attn_drop): Dropout(p=0.0, inplace=False)

          (proj): Linear(in_features=384, out_features=384, bias=True)

          (proj_drop): Dropout(p=0.0, inplace=False)

        )

        (drop_path): DropPath(drop_prob=0.033)

        (norm2): LayerNorm((384,), eps=1e-05, elementwise_affine=True)

        (mlp): Mlp(

          (fc1): Linear(in_features=384, out_features=1536, bias=True)

          (act): QuickGELU()

          (fc2): Linear(in_features=1536, out_features=384, bias=True)

          (drop): Dropout(p=0.0, inplace=False)

        )

      )

      (6): Block(

        (norm1): LayerNorm((384,), eps=1e-05, elementwise_affine=True)

        (attn): Attention(

          (conv_proj_q): Sequential(

            (conv): Conv2d(384, 384, kernel_size=(3, 3), stride=(1, 1), padding=(1, 1), groups=384, bias=False)

            (bn): BatchNorm2d(384, eps=1e-05, momentum=0.1, affine=True, track_running_stats=True)

            (rearrage): Rearrange('b c h w -> b (h w) c')

          )

          (conv_proj_k): Sequential(

            (conv): Conv2d(384, 384, kernel_size=(3, 3), stride=(2, 2), padding=(1, 1), groups=384, bias=False)

            (bn): BatchNorm2d(384, eps=1e-05, momentum=0.1, affine=True, track_running_stats=True)

            (rearrage): Rearrange('b c h w -> b (h w) c')

          )

          (conv_proj_v): Sequential(

            (conv): Conv2d(384, 384, kernel_size=(3, 3), stride=(2, 2), padding=(1, 1), groups=384, bias=False)

            (bn): BatchNorm2d(384, eps=1e-05, momentum=0.1, affine=True, track_running_stats=True)

            (rearrage): Rearrange('b c h w -> b (h w) c')

          )

          (proj_q): Linear(in_features=384, out_features=384, bias=True)

          (proj_k): Linear(in_features=384, out_features=384, bias=True)

          (proj_v): Linear(in_features=384, out_features=384, bias=True)

          (attn_drop): Dropout(p=0.0, inplace=False)

          (proj): Linear(in_features=384, out_features=384, bias=True)

          (proj_drop): Dropout(p=0.0, inplace=False)

        )

        (drop_path): DropPath(drop_prob=0.040)

        (norm2): LayerNorm((384,), eps=1e-05, elementwise_affine=True)

        (mlp): Mlp(

          (fc1): Linear(in_features=384, out_features=1536, bias=True)

          (act): QuickGELU()

          (fc2): Linear(in_features=1536, out_features=384, bias=True)

          (drop): Dropout(p=0.0, inplace=False)

        )

      )

      (7): Block(

        (norm1): LayerNorm((384,), eps=1e-05, elementwise_affine=True)

        (attn): Attention(

          (conv_proj_q): Sequential(

            (conv): Conv2d(384, 384, kernel_size=(3, 3), stride=(1, 1), padding=(1, 1), groups=384, bias=False)

            (bn): BatchNorm2d(384, eps=1e-05, momentum=0.1, affine=True, track_running_stats=True)

            (rearrage): Rearrange('b c h w -> b (h w) c')

          )

          (conv_proj_k): Sequential(

            (conv): Conv2d(384, 384, kernel_size=(3, 3), stride=(2, 2), padding=(1, 1), groups=384, bias=False)

            (bn): BatchNorm2d(384, eps=1e-05, momentum=0.1, affine=True, track_running_stats=True)

            (rearrage): Rearrange('b c h w -> b (h w) c')

          )

          (conv_proj_v): Sequential(

            (conv): Conv2d(384, 384, kernel_size=(3, 3), stride=(2, 2), padding=(1, 1), groups=384, bias=False)

            (bn): BatchNorm2d(384, eps=1e-05, momentum=0.1, affine=True, track_running_stats=True)

            (rearrage): Rearrange('b c h w -> b (h w) c')

          )

          (proj_q): Linear(in_features=384, out_features=384, bias=True)

          (proj_k): Linear(in_features=384, out_features=384, bias=True)

          (proj_v): Linear(in_features=384, out_features=384, bias=True)

          (attn_drop): Dropout(p=0.0, inplace=False)

          (proj): Linear(in_features=384, out_features=384, bias=True)

          (proj_drop): Dropout(p=0.0, inplace=False)

        )

        (drop_path): DropPath(drop_prob=0.047)

        (norm2): LayerNorm((384,), eps=1e-05, elementwise_affine=True)

        (mlp): Mlp(

          (fc1): Linear(in_features=384, out_features=1536, bias=True)

          (act): QuickGELU()

          (fc2): Linear(in_features=1536, out_features=384, bias=True)

          (drop): Dropout(p=0.0, inplace=False)

        )

      )

      (8): Block(

        (norm1): LayerNorm((384,), eps=1e-05, elementwise_affine=True)

        (attn): Attention(

          (conv_proj_q): Sequential(

            (conv): Conv2d(384, 384, kernel_size=(3, 3), stride=(1, 1), padding=(1, 1), groups=384, bias=False)

            (bn): BatchNorm2d(384, eps=1e-05, momentum=0.1, affine=True, track_running_stats=True)

            (rearrage): Rearrange('b c h w -> b (h w) c')

          )

          (conv_proj_k): Sequential(

            (conv): Conv2d(384, 384, kernel_size=(3, 3), stride=(2, 2), padding=(1, 1), groups=384, bias=False)

            (bn): BatchNorm2d(384, eps=1e-05, momentum=0.1, affine=True, track_running_stats=True)

            (rearrage): Rearrange('b c h w -> b (h w) c')

          )

          (conv_proj_v): Sequential(

            (conv): Conv2d(384, 384, kernel_size=(3, 3), stride=(2, 2), padding=(1, 1), groups=384, bias=False)

            (bn): BatchNorm2d(384, eps=1e-05, momentum=0.1, affine=True, track_running_stats=True)

            (rearrage): Rearrange('b c h w -> b (h w) c')

          )

          (proj_q): Linear(in_features=384, out_features=384, bias=True)

          (proj_k): Linear(in_features=384, out_features=384, bias=True)

          (proj_v): Linear(in_features=384, out_features=384, bias=True)

          (attn_drop): Dropout(p=0.0, inplace=False)

          (proj): Linear(in_features=384, out_features=384, bias=True)

          (proj_drop): Dropout(p=0.0, inplace=False)

        )

        (drop_path): DropPath(drop_prob=0.053)

        (norm2): LayerNorm((384,), eps=1e-05, elementwise_affine=True)

        (mlp): Mlp(

          (fc1): Linear(in_features=384, out_features=1536, bias=True)

          (act): QuickGELU()

          (fc2): Linear(in_features=1536, out_features=384, bias=True)

          (drop): Dropout(p=0.0, inplace=False)

        )

      )

      (9): Block(

        (norm1): LayerNorm((384,), eps=1e-05, elementwise_affine=True)

        (attn): Attention(

          (conv_proj_q): Sequential(

            (conv): Conv2d(384, 384, kernel_size=(3, 3), stride=(1, 1), padding=(1, 1), groups=384, bias=False)

            (bn): BatchNorm2d(384, eps=1e-05, momentum=0.1, affine=True, track_running_stats=True)

            (rearrage): Rearrange('b c h w -> b (h w) c')

          )

          (conv_proj_k): Sequential(

            (conv): Conv2d(384, 384, kernel_size=(3, 3), stride=(2, 2), padding=(1, 1), groups=384, bias=False)

            (bn): BatchNorm2d(384, eps=1e-05, momentum=0.1, affine=True, track_running_stats=True)

            (rearrage): Rearrange('b c h w -> b (h w) c')

          )

          (conv_proj_v): Sequential(

            (conv): Conv2d(384, 384, kernel_size=(3, 3), stride=(2, 2), padding=(1, 1), groups=384, bias=False)

            (bn): BatchNorm2d(384, eps=1e-05, momentum=0.1, affine=True, track_running_stats=True)

            (rearrage): Rearrange('b c h w -> b (h w) c')

          )

          (proj_q): Linear(in_features=384, out_features=384, bias=True)

          (proj_k): Linear(in_features=384, out_features=384, bias=True)

          (proj_v): Linear(in_features=384, out_features=384, bias=True)

          (attn_drop): Dropout(p=0.0, inplace=False)

          (proj): Linear(in_features=384, out_features=384, bias=True)

          (proj_drop): Dropout(p=0.0, inplace=False)

        )

        (drop_path): DropPath(drop_prob=0.060)

        (norm2): LayerNorm((384,), eps=1e-05, elementwise_affine=True)

        (mlp): Mlp(

          (fc1): Linear(in_features=384, out_features=1536, bias=True)

          (act): QuickGELU()

          (fc2): Linear(in_features=1536, out_features=384, bias=True)

          (drop): Dropout(p=0.0, inplace=False)

        )

      )

      (10): Block(

        (norm1): LayerNorm((384,), eps=1e-05, elementwise_affine=True)

        (attn): Attention(

          (conv_proj_q): Sequential(

            (conv): Conv2d(384, 384, kernel_size=(3, 3), stride=(1, 1), padding=(1, 1), groups=384, bias=False)

            (bn): BatchNorm2d(384, eps=1e-05, momentum=0.1, affine=True, track_running_stats=True)

            (rearrage): Rearrange('b c h w -> b (h w) c')

          )

          (conv_proj_k): Sequential(

            (conv): Conv2d(384, 384, kernel_size=(3, 3), stride=(2, 2), padding=(1, 1), groups=384, bias=False)

            (bn): BatchNorm2d(384, eps=1e-05, momentum=0.1, affine=True, track_running_stats=True)

            (rearrage): Rearrange('b c h w -> b (h w) c')

          )

          (conv_proj_v): Sequential(

            (conv): Conv2d(384, 384, kernel_size=(3, 3), stride=(2, 2), padding=(1, 1), groups=384, bias=False)

            (bn): BatchNorm2d(384, eps=1e-05, momentum=0.1, affine=True, track_running_stats=True)

            (rearrage): Rearrange('b c h w -> b (h w) c')

          )

          (proj_q): Linear(in_features=384, out_features=384, bias=True)

          (proj_k): Linear(in_features=384, out_features=384, bias=True)

          (proj_v): Linear(in_features=384, out_features=384, bias=True)

          (attn_drop): Dropout(p=0.0, inplace=False)

          (proj): Linear(in_features=384, out_features=384, bias=True)

          (proj_drop): Dropout(p=0.0, inplace=False)

        )

        (drop_path): DropPath(drop_prob=0.067)

        (norm2): LayerNorm((384,), eps=1e-05, elementwise_affine=True)

        (mlp): Mlp(

          (fc1): Linear(in_features=384, out_features=1536, bias=True)

          (act): QuickGELU()

          (fc2): Linear(in_features=1536, out_features=384, bias=True)

          (drop): Dropout(p=0.0, inplace=False)

        )

      )

      (11): Block(

        (norm1): LayerNorm((384,), eps=1e-05, elementwise_affine=True)

        (attn): Attention(

          (conv_proj_q): Sequential(

            (conv): Conv2d(384, 384, kernel_size=(3, 3), stride=(1, 1), padding=(1, 1), groups=384, bias=False)

            (bn): BatchNorm2d(384, eps=1e-05, momentum=0.1, affine=True, track_running_stats=True)

            (rearrage): Rearrange('b c h w -> b (h w) c')

          )

          (conv_proj_k): Sequential(

            (conv): Conv2d(384, 384, kernel_size=(3, 3), stride=(2, 2), padding=(1, 1), groups=384, bias=False)

            (bn): BatchNorm2d(384, eps=1e-05, momentum=0.1, affine=True, track_running_stats=True)

            (rearrage): Rearrange('b c h w -> b (h w) c')

          )

          (conv_proj_v): Sequential(

            (conv): Conv2d(384, 384, kernel_size=(3, 3), stride=(2, 2), padding=(1, 1), groups=384, bias=False)

            (bn): BatchNorm2d(384, eps=1e-05, momentum=0.1, affine=True, track_running_stats=True)

            (rearrage): Rearrange('b c h w -> b (h w) c')

          )

          (proj_q): Linear(in_features=384, out_features=384, bias=True)

          (proj_k): Linear(in_features=384, out_features=384, bias=True)

          (proj_v): Linear(in_features=384, out_features=384, bias=True)

          (attn_drop): Dropout(p=0.0, inplace=False)

          (proj): Linear(in_features=384, out_features=384, bias=True)

          (proj_drop): Dropout(p=0.0, inplace=False)

        )

        (drop_path): DropPath(drop_prob=0.073)

        (norm2): LayerNorm((384,), eps=1e-05, elementwise_affine=True)

        (mlp): Mlp(

          (fc1): Linear(in_features=384, out_features=1536, bias=True)

          (act): QuickGELU()

          (fc2): Linear(in_features=1536, out_features=384, bias=True)

          (drop): Dropout(p=0.0, inplace=False)

        )

      )

      (12): Block(

        (norm1): LayerNorm((384,), eps=1e-05, elementwise_affine=True)

        (attn): Attention(

          (conv_proj_q): Sequential(

            (conv): Conv2d(384, 384, kernel_size=(3, 3), stride=(1, 1), padding=(1, 1), groups=384, bias=False)

            (bn): BatchNorm2d(384, eps=1e-05, momentum=0.1, affine=True, track_running_stats=True)

            (rearrage): Rearrange('b c h w -> b (h w) c')

          )

          (conv_proj_k): Sequential(

            (conv): Conv2d(384, 384, kernel_size=(3, 3), stride=(2, 2), padding=(1, 1), groups=384, bias=False)

            (bn): BatchNorm2d(384, eps=1e-05, momentum=0.1, affine=True, track_running_stats=True)

            (rearrage): Rearrange('b c h w -> b (h w) c')

          )

          (conv_proj_v): Sequential(

            (conv): Conv2d(384, 384, kernel_size=(3, 3), stride=(2, 2), padding=(1, 1), groups=384, bias=False)

            (bn): BatchNorm2d(384, eps=1e-05, momentum=0.1, affine=True, track_running_stats=True)

            (rearrage): Rearrange('b c h w -> b (h w) c')

          )

          (proj_q): Linear(in_features=384, out_features=384, bias=True)

          (proj_k): Linear(in_features=384, out_features=384, bias=True)

          (proj_v): Linear(in_features=384, out_features=384, bias=True)

          (attn_drop): Dropout(p=0.0, inplace=False)

          (proj): Linear(in_features=384, out_features=384, bias=True)

          (proj_drop): Dropout(p=0.0, inplace=False)

        )

        (drop_path): DropPath(drop_prob=0.080)

        (norm2): LayerNorm((384,), eps=1e-05, elementwise_affine=True)

        (mlp): Mlp(

          (fc1): Linear(in_features=384, out_features=1536, bias=True)

          (act): QuickGELU()

          (fc2): Linear(in_features=1536, out_features=384, bias=True)

          (drop): Dropout(p=0.0, inplace=False)

        )

      )

      (13): Block(

        (norm1): LayerNorm((384,), eps=1e-05, elementwise_affine=True)

        (attn): Attention(

          (conv_proj_q): Sequential(

            (conv): Conv2d(384, 384, kernel_size=(3, 3), stride=(1, 1), padding=(1, 1), groups=384, bias=False)

            (bn): BatchNorm2d(384, eps=1e-05, momentum=0.1, affine=True, track_running_stats=True)

            (rearrage): Rearrange('b c h w -> b (h w) c')

          )

          (conv_proj_k): Sequential(

            (conv): Conv2d(384, 384, kernel_size=(3, 3), stride=(2, 2), padding=(1, 1), groups=384, bias=False)

            (bn): BatchNorm2d(384, eps=1e-05, momentum=0.1, affine=True, track_running_stats=True)

            (rearrage): Rearrange('b c h w -> b (h w) c')

          )

          (conv_proj_v): Sequential(

            (conv): Conv2d(384, 384, kernel_size=(3, 3), stride=(2, 2), padding=(1, 1), groups=384, bias=False)

            (bn): BatchNorm2d(384, eps=1e-05, momentum=0.1, affine=True, track_running_stats=True)

            (rearrage): Rearrange('b c h w -> b (h w) c')

          )

          (proj_q): Linear(in_features=384, out_features=384, bias=True)

          (proj_k): Linear(in_features=384, out_features=384, bias=True)

          (proj_v): Linear(in_features=384, out_features=384, bias=True)

          (attn_drop): Dropout(p=0.0, inplace=False)

          (proj): Linear(in_features=384, out_features=384, bias=True)

          (proj_drop): Dropout(p=0.0, inplace=False)

        )

        (drop_path): DropPath(drop_prob=0.087)

        (norm2): LayerNorm((384,), eps=1e-05, elementwise_affine=True)

        (mlp): Mlp(

          (fc1): Linear(in_features=384, out_features=1536, bias=True)

          (act): QuickGELU()

          (fc2): Linear(in_features=1536, out_features=384, bias=True)

          (drop): Dropout(p=0.0, inplace=False)

        )

      )

      (14): Block(

        (norm1): LayerNorm((384,), eps=1e-05, elementwise_affine=True)

        (attn): Attention(

          (conv_proj_q): Sequential(

            (conv): Conv2d(384, 384, kernel_size=(3, 3), stride=(1, 1), padding=(1, 1), groups=384, bias=False)

            (bn): BatchNorm2d(384, eps=1e-05, momentum=0.1, affine=True, track_running_stats=True)

            (rearrage): Rearrange('b c h w -> b (h w) c')

          )

          (conv_proj_k): Sequential(

            (conv): Conv2d(384, 384, kernel_size=(3, 3), stride=(2, 2), padding=(1, 1), groups=384, bias=False)

            (bn): BatchNorm2d(384, eps=1e-05, momentum=0.1, affine=True, track_running_stats=True)

            (rearrage): Rearrange('b c h w -> b (h w) c')

          )

          (conv_proj_v): Sequential(

            (conv): Conv2d(384, 384, kernel_size=(3, 3), stride=(2, 2), padding=(1, 1), groups=384, bias=False)

            (bn): BatchNorm2d(384, eps=1e-05, momentum=0.1, affine=True, track_running_stats=True)

            (rearrage): Rearrange('b c h w -> b (h w) c')

          )

          (proj_q): Linear(in_features=384, out_features=384, bias=True)

          (proj_k): Linear(in_features=384, out_features=384, bias=True)

          (proj_v): Linear(in_features=384, out_features=384, bias=True)

          (attn_drop): Dropout(p=0.0, inplace=False)

          (proj): Linear(in_features=384, out_features=384, bias=True)

          (proj_drop): Dropout(p=0.0, inplace=False)

        )

        (drop_path): DropPath(drop_prob=0.093)

        (norm2): LayerNorm((384,), eps=1e-05, elementwise_affine=True)

        (mlp): Mlp(

          (fc1): Linear(in_features=384, out_features=1536, bias=True)

          (act): QuickGELU()

          (fc2): Linear(in_features=1536, out_features=384, bias=True)

          (drop): Dropout(p=0.0, inplace=False)

        )

      )

      (15): Block(

        (norm1): LayerNorm((384,), eps=1e-05, elementwise_affine=True)

        (attn): Attention(

          (conv_proj_q): Sequential(

            (conv): Conv2d(384, 384, kernel_size=(3, 3), stride=(1, 1), padding=(1, 1), groups=384, bias=False)

            (bn): BatchNorm2d(384, eps=1e-05, momentum=0.1, affine=True, track_running_stats=True)

            (rearrage): Rearrange('b c h w -> b (h w) c')

          )

          (conv_proj_k): Sequential(

            (conv): Conv2d(384, 384, kernel_size=(3, 3), stride=(2, 2), padding=(1, 1), groups=384, bias=False)

            (bn): BatchNorm2d(384, eps=1e-05, momentum=0.1, affine=True, track_running_stats=True)

            (rearrage): Rearrange('b c h w -> b (h w) c')

          )

          (conv_proj_v): Sequential(

            (conv): Conv2d(384, 384, kernel_size=(3, 3), stride=(2, 2), padding=(1, 1), groups=384, bias=False)

            (bn): BatchNorm2d(384, eps=1e-05, momentum=0.1, affine=True, track_running_stats=True)

            (rearrage): Rearrange('b c h w -> b (h w) c')

          )

          (proj_q): Linear(in_features=384, out_features=384, bias=True)

          (proj_k): Linear(in_features=384, out_features=384, bias=True)

          (proj_v): Linear(in_features=384, out_features=384, bias=True)

          (attn_drop): Dropout(p=0.0, inplace=False)

          (proj): Linear(in_features=384, out_features=384, bias=True)

          (proj_drop): Dropout(p=0.0, inplace=False)

        )

        (drop_path): DropPath(drop_prob=0.100)

        (norm2): LayerNorm((384,), eps=1e-05, elementwise_affine=True)

        (mlp): Mlp(

          (fc1): Linear(in_features=384, out_features=1536, bias=True)

          (act): QuickGELU()

          (fc2): Linear(in_features=1536, out_features=384, bias=True)

          (drop): Dropout(p=0.0, inplace=False)

        )

      )

    )

  )

  (norm): LayerNorm((384,), eps=1e-05, elementwise_affine=True)

  (head): Linear(in_features=384, out_features=11, bias=True)

)

ts            fname                               label pred    conf   f1_score(all)

1702608166.63 USU013_2022_02_07_001_2702.jpg          1     1   0.9986  1.0000

1702608166.63 USU013_2022_04_16_007_3554.jpg          1     1   0.9996  1.0000

1702608166.63 URT020_2021_04_10_001_24606.jpg         1     1   0.7670  1.0000

1702608166.63 USU012_2021_02_06_002_686.jpg           1     1   0.9985  1.0000
…
timestamp:  1702609282.541881 the final f1_score:  0.8467003

done.

2) 이미지 분할(SegFormer)

이미지 분할 테스크는 다음과 같은 명령을 통해 수행 가능함

$ python3 eval.py



evalutation

construct patch dataframe

100%|██████████| 52505/52505 [00:48<00:00, 1079.33it/s]loading model from outputs/segformer-b1-finetuned-ade-512-512_512px/weights/segformer-b1-finetuned-ade-512-512-512px-bs64-cosannealwarm-cEloss-3chimg-tta-sc-wbg1.0-best_metric.pth

SegformerForSemanticSegmentation(

  (segformer): SegformerModel(

    (encoder): SegformerEncoder(

      (patch_embeddings): ModuleList(

        (0): SegformerOverlapPatchEmbeddings(

          (proj): Conv2d(3, 64, kernel_size=(7, 7), stride=(4, 4), padding=(3, 3))

          (layer_norm): LayerNorm((64,), eps=1e-05, elementwise_affine=True)

        )

        (1): SegformerOverlapPatchEmbeddings(

          (proj): Conv2d(64, 128, kernel_size=(3, 3), stride=(2, 2), padding=(1, 1))

          (layer_norm): LayerNorm((128,), eps=1e-05, elementwise_affine=True)

        )

        (2): SegformerOverlapPatchEmbeddings(

          (proj): Conv2d(128, 320, kernel_size=(3, 3), stride=(2, 2), padding=(1, 1))

          (layer_norm): LayerNorm((320,), eps=1e-05, elementwise_affine=True)

        )

        (3): SegformerOverlapPatchEmbeddings(

          (proj): Conv2d(320, 512, kernel_size=(3, 3), stride=(2, 2), padding=(1, 1))

          (layer_norm): LayerNorm((512,), eps=1e-05, elementwise_affine=True)

        )

      )

      (block): ModuleList(

        (0): ModuleList(

          (0): SegformerLayer(

            (layer_norm_1): LayerNorm((64,), eps=1e-05, elementwise_affine=True)

            (attention): SegformerAttention(

              (self): SegformerEfficientSelfAttention(

                (query): Linear(in_features=64, out_features=64, bias=True)

                (key): Linear(in_features=64, out_features=64, bias=True)

                (value): Linear(in_features=64, out_features=64, bias=True)

                (dropout): Dropout(p=0.0, inplace=False)

                (sr): Conv2d(64, 64, kernel_size=(8, 8), stride=(8, 8))

                (layer_norm): LayerNorm((64,), eps=1e-05, elementwise_affine=True)

              )

              (output): SegformerSelfOutput(

                (dense): Linear(in_features=64, out_features=64, bias=True)

                (dropout): Dropout(p=0.0, inplace=False)

              )

            )

            (drop_path): Identity()

            (layer_norm_2): LayerNorm((64,), eps=1e-05, elementwise_affine=True)

            (mlp): SegformerMixFFN(

              (dense1): Linear(in_features=64, out_features=256, bias=True)

              (dwconv): SegformerDWConv(

                (dwconv): Conv2d(256, 256, kernel_size=(3, 3), stride=(1, 1), padding=(1, 1), groups=256)

              )

              (intermediate_act_fn): GELUActivation()

              (dense2): Linear(in_features=256, out_features=64, bias=True)

              (dropout): Dropout(p=0.0, inplace=False)

            )

          )

          (1): SegformerLayer(

            (layer_norm_1): LayerNorm((64,), eps=1e-05, elementwise_affine=True)

            (attention): SegformerAttention(

              (self): SegformerEfficientSelfAttention(

                (query): Linear(in_features=64, out_features=64, bias=True)

                (key): Linear(in_features=64, out_features=64, bias=True)

                (value): Linear(in_features=64, out_features=64, bias=True)

                (dropout): Dropout(p=0.0, inplace=False)

                (sr): Conv2d(64, 64, kernel_size=(8, 8), stride=(8, 8))

                (layer_norm): LayerNorm((64,), eps=1e-05, elementwise_affine=True)

              )

              (output): SegformerSelfOutput(

                (dense): Linear(in_features=64, out_features=64, bias=True)

                (dropout): Dropout(p=0.0, inplace=False)

              )

            )

            (drop_path): SegformerDropPath(p=0.014285714365541935)

            (layer_norm_2): LayerNorm((64,), eps=1e-05, elementwise_affine=True)

            (mlp): SegformerMixFFN(

              (dense1): Linear(in_features=64, out_features=256, bias=True)

              (dwconv): SegformerDWConv(

                (dwconv): Conv2d(256, 256, kernel_size=(3, 3), stride=(1, 1), padding=(1, 1), groups=256)

              )

              (intermediate_act_fn): GELUActivation()

              (dense2): Linear(in_features=256, out_features=64, bias=True)

              (dropout): Dropout(p=0.0, inplace=False)

            )

          )

        )

        (1): ModuleList(

          (0): SegformerLayer(

            (layer_norm_1): LayerNorm((128,), eps=1e-05, elementwise_affine=True)

            (attention): SegformerAttention(

              (self): SegformerEfficientSelfAttention(

                (query): Linear(in_features=128, out_features=128, bias=True)

                (key): Linear(in_features=128, out_features=128, bias=True)

                (value): Linear(in_features=128, out_features=128, bias=True)

                (dropout): Dropout(p=0.0, inplace=False)

                (sr): Conv2d(128, 128, kernel_size=(4, 4), stride=(4, 4))

                (layer_norm): LayerNorm((128,), eps=1e-05, elementwise_affine=True)

              )

              (output): SegformerSelfOutput(

                (dense): Linear(in_features=128, out_features=128, bias=True)

                (dropout): Dropout(p=0.0, inplace=False)

              )

            )

            (drop_path): SegformerDropPath(p=0.02857142873108387)

            (layer_norm_2): LayerNorm((128,), eps=1e-05, elementwise_affine=True)

            (mlp): SegformerMixFFN(

              (dense1): Linear(in_features=128, out_features=512, bias=True)

              (dwconv): SegformerDWConv(

                (dwconv): Conv2d(512, 512, kernel_size=(3, 3), stride=(1, 1), padding=(1, 1), groups=512)

              )

              (intermediate_act_fn): GELUActivation()

              (dense2): Linear(in_features=512, out_features=128, bias=True)

              (dropout): Dropout(p=0.0, inplace=False)

            )

          )

          (1): SegformerLayer(

            (layer_norm_1): LayerNorm((128,), eps=1e-05, elementwise_affine=True)

            (attention): SegformerAttention(

              (self): SegformerEfficientSelfAttention(

                (query): Linear(in_features=128, out_features=128, bias=True)

                (key): Linear(in_features=128, out_features=128, bias=True)

                (value): Linear(in_features=128, out_features=128, bias=True)

                (dropout): Dropout(p=0.0, inplace=False)

                (sr): Conv2d(128, 128, kernel_size=(4, 4), stride=(4, 4))

                (layer_norm): LayerNorm((128,), eps=1e-05, elementwise_affine=True)

              )

              (output): SegformerSelfOutput(

                (dense): Linear(in_features=128, out_features=128, bias=True)

                (dropout): Dropout(p=0.0, inplace=False)

              )

            )

            (drop_path): SegformerDropPath(p=0.04285714402794838)

            (layer_norm_2): LayerNorm((128,), eps=1e-05, elementwise_affine=True)

            (mlp): SegformerMixFFN(

              (dense1): Linear(in_features=128, out_features=512, bias=True)

              (dwconv): SegformerDWConv(

                (dwconv): Conv2d(512, 512, kernel_size=(3, 3), stride=(1, 1), padding=(1, 1), groups=512)

              )

              (intermediate_act_fn): GELUActivation()

              (dense2): Linear(in_features=512, out_features=128, bias=True)

              (dropout): Dropout(p=0.0, inplace=False)

            )

          )

        )

        (2): ModuleList(

          (0): SegformerLayer(

            (layer_norm_1): LayerNorm((320,), eps=1e-05, elementwise_affine=True)

            (attention): SegformerAttention(

              (self): SegformerEfficientSelfAttention(

                (query): Linear(in_features=320, out_features=320, bias=True)

                (key): Linear(in_features=320, out_features=320, bias=True)

                (value): Linear(in_features=320, out_features=320, bias=True)

                (dropout): Dropout(p=0.0, inplace=False)

                (sr): Conv2d(320, 320, kernel_size=(2, 2), stride=(2, 2))

                (layer_norm): LayerNorm((320,), eps=1e-05, elementwise_affine=True)

              )

              (output): SegformerSelfOutput(

                (dense): Linear(in_features=320, out_features=320, bias=True)

                (dropout): Dropout(p=0.0, inplace=False)

              )

            )

            (drop_path): SegformerDropPath(p=0.05714285746216774)

            (layer_norm_2): LayerNorm((320,), eps=1e-05, elementwise_affine=True)

            (mlp): SegformerMixFFN(

              (dense1): Linear(in_features=320, out_features=1280, bias=True)

              (dwconv): SegformerDWConv(

                (dwconv): Conv2d(1280, 1280, kernel_size=(3, 3), stride=(1, 1), padding=(1, 1), groups=1280)

              )

              (intermediate_act_fn): GELUActivation()

              (dense2): Linear(in_features=1280, out_features=320, bias=True)

              (dropout): Dropout(p=0.0, inplace=False)

            )

          )

          (1): SegformerLayer(

            (layer_norm_1): LayerNorm((320,), eps=1e-05, elementwise_affine=True)

            (attention): SegformerAttention(

              (self): SegformerEfficientSelfAttention(

                (query): Linear(in_features=320, out_features=320, bias=True)

                (key): Linear(in_features=320, out_features=320, bias=True)

                (value): Linear(in_features=320, out_features=320, bias=True)

                (dropout): Dropout(p=0.0, inplace=False)

                (sr): Conv2d(320, 320, kernel_size=(2, 2), stride=(2, 2))

                (layer_norm): LayerNorm((320,), eps=1e-05, elementwise_affine=True)

              )

              (output): SegformerSelfOutput(

                (dense): Linear(in_features=320, out_features=320, bias=True)

                (dropout): Dropout(p=0.0, inplace=False)

              )

            )

            (drop_path): SegformerDropPath(p=0.0714285746216774)

            (layer_norm_2): LayerNorm((320,), eps=1e-05, elementwise_affine=True)

            (mlp): SegformerMixFFN(

              (dense1): Linear(in_features=320, out_features=1280, bias=True)

              (dwconv): SegformerDWConv(

                (dwconv): Conv2d(1280, 1280, kernel_size=(3, 3), stride=(1, 1), padding=(1, 1), groups=1280)

              )

              (intermediate_act_fn): GELUActivation()

              (dense2): Linear(in_features=1280, out_features=320, bias=True)

              (dropout): Dropout(p=0.0, inplace=False)

            )

          )

        )

        (3): ModuleList(

          (0): SegformerLayer(

            (layer_norm_1): LayerNorm((512,), eps=1e-05, elementwise_affine=True)

            (attention): SegformerAttention(

              (self): SegformerEfficientSelfAttention(

                (query): Linear(in_features=512, out_features=512, bias=True)

                (key): Linear(in_features=512, out_features=512, bias=True)

                (value): Linear(in_features=512, out_features=512, bias=True)

                (dropout): Dropout(p=0.0, inplace=False)

              )

              (output): SegformerSelfOutput(

                (dense): Linear(in_features=512, out_features=512, bias=True)

                (dropout): Dropout(p=0.0, inplace=False)

              )

            )

            (drop_path): SegformerDropPath(p=0.08571428805589676)

            (layer_norm_2): LayerNorm((512,), eps=1e-05, elementwise_affine=True)

            (mlp): SegformerMixFFN(

              (dense1): Linear(in_features=512, out_features=2048, bias=True)

              (dwconv): SegformerDWConv(

                (dwconv): Conv2d(2048, 2048, kernel_size=(3, 3), stride=(1, 1), padding=(1, 1), groups=2048)

              )

              (intermediate_act_fn): GELUActivation()

              (dense2): Linear(in_features=2048, out_features=512, bias=True)

              (dropout): Dropout(p=0.0, inplace=False)

            )

          )

          (1): SegformerLayer(

            (layer_norm_1): LayerNorm((512,), eps=1e-05, elementwise_affine=True)

            (attention): SegformerAttention(

              (self): SegformerEfficientSelfAttention(

                (query): Linear(in_features=512, out_features=512, bias=True)

                (key): Linear(in_features=512, out_features=512, bias=True)

                (value): Linear(in_features=512, out_features=512, bias=True)

                (dropout): Dropout(p=0.0, inplace=False)

              )

              (output): SegformerSelfOutput(

                (dense): Linear(in_features=512, out_features=512, bias=True)

                (dropout): Dropout(p=0.0, inplace=False)

              )

            )

            (drop_path): SegformerDropPath(p=0.10000000149011612)

            (layer_norm_2): LayerNorm((512,), eps=1e-05, elementwise_affine=True)

            (mlp): SegformerMixFFN(

              (dense1): Linear(in_features=512, out_features=2048, bias=True)

              (dwconv): SegformerDWConv(

                (dwconv): Conv2d(2048, 2048, kernel_size=(3, 3), stride=(1, 1), padding=(1, 1), groups=2048)

              )

              (intermediate_act_fn): GELUActivation()

              (dense2): Linear(in_features=2048, out_features=512, bias=True)

              (dropout): Dropout(p=0.0, inplace=False)

            )

          )

        )

      )

      (layer_norm): ModuleList(

        (0): LayerNorm((64,), eps=1e-05, elementwise_affine=True)

        (1): LayerNorm((128,), eps=1e-05, elementwise_affine=True)

        (2): LayerNorm((320,), eps=1e-05, elementwise_affine=True)

        (3): LayerNorm((512,), eps=1e-05, elementwise_affine=True)

      )

    )

  )

  (decode_head): SegformerDecodeHead(

    (linear_c): ModuleList(

      (0): SegformerMLP(

        (proj): Linear(in_features=64, out_features=256, bias=True)

      )

      (1): SegformerMLP(

        (proj): Linear(in_features=128, out_features=256, bias=True)

      )

      (2): SegformerMLP(

        (proj): Linear(in_features=320, out_features=256, bias=True)

      )

      (3): SegformerMLP(

        (proj): Linear(in_features=512, out_features=256, bias=True)

      )

    )

    (linear_fuse): Conv2d(1024, 256, kernel_size=(1, 1), stride=(1, 1), bias=False)

    (batch_norm): BatchNorm2d(256, eps=1e-05, momentum=0.1, affine=True, track_running_stats=True)

    (activation): ReLU()

    (dropout): Dropout(p=0.1, inplace=False)

    (classifier): Conv2d(256, 11, kernel_size=(1, 1), stride=(1, 1))

  )

)

ts: 1702608927.87

ts 1702608942.08, USU012_2021_02_08_092_16355.jpg    , iou(each): [1.00,0.00,nan,nan,nan,nan,nan,nan,nan,nan,nan], miou(each): 0.4993, miou(avg.): 0.4993

ts 1702608942.08, USU012_2021_02_10_092_8415.jpg     , iou(each): [1.00,0.12,nan,nan,nan,nan,nan,nan,nan,nan,nan], miou(each): 0.5606, miou(avg.): 0.5300

ts 1702608942.08, GRB005_2021_01_00_001_9092.jpg     , iou(each): [0.99,0.35,nan,nan,nan,nan,nan,nan,nan,nan,nan], miou(each): 0.6692, miou(avg.): 0.5764
…
